Device used:  cuda 

ORIGINAL UN-PRUNED MODEL: 

 ResNet(
  (dropout): Dropout(p=0.0, inplace=False)
  (layer0): Sequential(
    (0): Conv2d(1, 64, kernel_size=(7, 7), stride=(2, 2), padding=(3, 3))
    (1): MaxPool2d(kernel_size=3, stride=2, padding=1, dilation=1, ceil_mode=False)
    (2): BatchNorm2d(64, eps=1e-05, momentum=0.1, affine=True, track_running_stats=True)
    (3): ReLU()
  )
  (layer1): Sequential(
    (conv2_1): ResBlock(
      (conv1): Conv2d(64, 64, kernel_size=(3, 3), stride=(1, 1), padding=(1, 1))
      (shortcut): Sequential()
      (conv2): Conv2d(64, 64, kernel_size=(3, 3), stride=(1, 1), padding=(1, 1))
      (bn1): BatchNorm2d(64, eps=1e-05, momentum=0.1, affine=True, track_running_stats=True)
      (bn2): BatchNorm2d(64, eps=1e-05, momentum=0.1, affine=True, track_running_stats=True)
    )
  )
  (layer2): Sequential(
    (conv3_1): ResBlock(
      (conv1): Conv2d(64, 256, kernel_size=(3, 3), stride=(2, 2), padding=(1, 1))
      (shortcut): Sequential(
        (0): Conv2d(64, 256, kernel_size=(1, 1), stride=(2, 2))
        (1): BatchNorm2d(256, eps=1e-05, momentum=0.1, affine=True, track_running_stats=True)
      )
      (conv2): Conv2d(256, 256, kernel_size=(3, 3), stride=(1, 1), padding=(1, 1))
      (bn1): BatchNorm2d(256, eps=1e-05, momentum=0.1, affine=True, track_running_stats=True)
      (bn2): BatchNorm2d(256, eps=1e-05, momentum=0.1, affine=True, track_running_stats=True)
    )
  )
  (gap): AdaptiveAvgPool2d(output_size=1)
  (fc): Linear(in_features=256, out_features=10, bias=True)
) 


Test set: Average loss: 0.0175, Accuracy: 7119/10000 (71%)

Test set: Average loss: 0.0127, Accuracy: 7403/10000 (74%)

Test set: Average loss: 0.0107, Accuracy: 7637/10000 (76%)

Test set: Average loss: 0.0096, Accuracy: 7808/10000 (78%)

Test set: Average loss: 0.0088, Accuracy: 7991/10000 (80%)

Test set: Average loss: 0.0082, Accuracy: 8136/10000 (81%)
…
[2022-11-20 16:02:51] [32mreplace module (name: layer2.conv3_1.bn2, op_type: BatchNorm2d)[0m
[2022-11-20 16:02:51] [32mreplace batchnorm2d with num_features: 213[0m
[2022-11-20 16:02:51] [32mreplace module (name: gap, op_type: AdaptiveAvgPool2d)[0m
[2022-11-20 16:02:51] [32mreplace module (name: dropout, op_type: Dropout)[0m
[2022-11-20 16:02:51] [32mreplace module (name: fc, op_type: Linear)[0m
[2022-11-20 16:02:51] [32mreplace linear with new in_features: 213, out_features: 10[0m
[2022-11-20 16:02:51] [32mspeedup done[0m
PRUNED MODEL WITH L1 NormPruner: 

ResNet(
  (dropout): Dropout(p=0.0, inplace=False)
  (layer0): Sequential(
    (0): Conv2d(1, 64, kernel_size=(7, 7), stride=(2, 2), padding=(3, 3))
    (1): MaxPool2d(kernel_size=3, stride=2, padding=1, dilation=1, ceil_mode=False)
    (2): BatchNorm2d(64, eps=1e-05, momentum=0.1, affine=True, track_running_stats=True)
    (3): ReLU()
  )
  (layer1): Sequential(
    (conv2_1): ResBlock(
      (conv1): Conv2d(64, 39, kernel_size=(3, 3), stride=(1, 1), padding=(1, 1))
      (shortcut): Sequential()
      (conv2): Conv2d(39, 64, kernel_size=(3, 3), stride=(1, 1), padding=(1, 1))
      (bn1): BatchNorm2d(39, eps=1e-05, momentum=0.1, affine=True, track_running_stats=True)
      (bn2): BatchNorm2d(64, eps=1e-05, momentum=0.1, affine=True, track_running_stats=True)
    )
  )
  (layer2): Sequential(
    (conv3_1): ResBlock(
      (conv1): Conv2d(64, 154, kernel_size=(3, 3), stride=(2, 2), padding=(1, 1))
      (shortcut): Sequential(
        (0): Conv2d(64, 213, kernel_size=(1, 1), stride=(2, 2))
        (1): BatchNorm2d(213, eps=1e-05, momentum=0.1, affine=True, track_running_stats=True)
      )
      (conv2): Conv2d(154, 213, kernel_size=(3, 3), stride=(1, 1), padding=(1, 1))
      (bn1): BatchNorm2d(154, eps=1e-05, momentum=0.1, affine=True, track_running_stats=True)
      (bn2): BatchNorm2d(213, eps=1e-05, momentum=0.1, affine=True, track_running_stats=True)
    )
  )
  (gap): AdaptiveAvgPool2d(output_size=1)
  (fc): Linear(in_features=213, out_features=10, bias=True)
)


Test set: Average loss: 0.0070, Accuracy: 8411/10000 (84%)

Test set: Average loss: 0.0063, Accuracy: 8544/10000 (85%)

Test set: Average loss: 0.0060, Accuracy: 8631/10000 (86%)

Test set: Average loss: 0.0057, Accuracy: 8714/10000 (87%)

Test set: Average loss: 0.0055, Accuracy: 8739/10000 (87%)

Test set: Average loss: 0.0055, Accuracy: 8743/10000 (87%)
…
